net.pth (torch_old, 10285 bytes, 13 tensors)

0.weight f4 [32, 7]
00000000: 6560 34bf 92ee cf3e 40a2 44be 10d8 103d
00000010: 5a91 2c3f ec93 0e3f 9f05 163f 5e44 403d
00000020: 7257 61bd b7f3 9abf d461 a23e 008c 9bbe
00000030: 2495 303f 3d32 973e 3a7b 4c3f add0 3e3f
00000040: 1a84 393e 51b1 2bbf 0f0d f6be cf4f b9be
00000050: 5b78 043e 1696 e73e 7209 2abf 8234 85bf
00000060: 24e8 813e f5bd 2fbf a7f1 3cbf 3da3 a3be
00000070: fc07 afbe b852 5b3e 0d21 873f aeaf c9be
00000080: 7f13 04bf 3dc2 3dbf ac71 903e 169d 68bd
00000090: 07a0 87bf d454 64bf 72a6 93be e95a 013e
000000a0: ddc3 cb3e 33a2 803d 4c1e d23f 8e9d a9bd
000000b0: ed7c 5c3f c10b 8dbf b151 dcbd 5d76 87be
000000c0: e586 fd3e 9cb1 64bf d6cd 173e 18c2 4dbe
000000d0: 28fc eabc 7767 e6bd 5ca0 293f f6e6 ab3e
000000e0: 49aa 93be 914e 4f3f 7d31 843e ba68 a4bd
000000f0: b3d2 863f 5992 90bc 7f86 4abe ccab bfbe
00000100: 1925 ce3e 52d9 4b3f 50ce 4b3e f239 a63e
00000110: 920f f1be 3650 343f 1b97 1f3e 78a1 b43e
00000120: 72da 023f 3f11 9a3f 2270 0e3f f693 693e
00000130: 8205 d53e 133d 15bf 4c8e fbbd e554 b03e
00000140: 2f91 99bf e64a 523f 8951 01bf fceb f23d
00000150: 3f92 ee3e 135a 42be 5726 2ebf c774 573f
00000160: 7552 c33d d88f 7e3e 5d61 0b3f 1bd6 bf3c
00000170: 17cb f9be 1e4d 8f3d 35f7 ee3b acfb 933e
00000180: 1e23 84bf 7085 49bf 4932 06bf 4d47 f13d
00000190: 55a7 95be bb1b 61bf d587 70bf 6bd9 8a3d
000001a0: 3498 e3bd 7b69 20bd b667 20be 35d0 2fbf
000001b0: 219f 9a3e 9fe4 353f 3cfd d8be 6cd0 973f
000001c0: 2fa5 de3d efed b9be 49c5 203f 6be5 e6be
000001d0: 09a6 083f bc31 a1bd b002 1fbf 6e8b 2cbf
000001e0: 2b47 d93c b478 063f 4ce8 7d3e 309f 113e
000001f0: f6a9 a43f 3fae fcbe a193 da3e ed8e dbbf
00000200: 98a1 453e 503f 523e 1074 c53d a3e0 cdbd
00000210: 5a11 c6be 670b 3e3f 78e1 f13e a5ca a5be
00000220: 9549 113d 311c 6ebe 04dc 463f f289 513f
00000230: b96e 3c3f c82f f93e 3c3e bd3e c9a3 533e
00000240: c657 af3f ed03 cf3e 6b6c b8be a7b1 bfbe
00000250: e9dc 8bbe 6778 ca3e f577 a6bd c022 e8be
00000260: a628 133c 9111 07be a703 173e 55e1 9abe
00000270: 1f15 283e b923 e03e e01f dfbe 6bdd 57bd
00000280: 3794 473e a099 8dbe 4f6d e43e 3d0c 313e
00000290: e93a 883f 38e8 9ebd 6121 a73e d544 05bf
000002a0: 0fc6 fbbe 9280 2ebf c633 a8bd b815 7b3f
000002b0: 5dc0 093e 67f9 39bf 5202 9a3f 8c03 07bf
000002c0: f4a1 fd3d 112e 7a3e e246 d83c 755a 733f
000002d0: e4e1 55bf d3d9 823e 2b77 943e f07d de3e
000002e0: e9db c93d 30e0 f4be 6a62 0b3f a673 c4be
000002f0: a04e b83f 7788 4e3f 6b83 53bf 1f35 7f3e
00000300: 85f3 4f3f 0065 45bf fb2e 35bf cf9a 76be
00000310: e7db 413e 83e2 133d 7050 a53e 86c6 d7be
00000320: 1e5f ca3e 7a0d 9fbe aafd 1c3f d344 0a3e
00000330: 9bf9 0abf 050a 65bd 3d18 d2be f66f c9be
00000340: 7072 8bbe 6f3b 263f 241a 94be a053 d2be
00000350: ae3a d9be 252f 433f c7b4 1c3e 6aab 333f
00000360: 2eda 9c3f 91ff 55bf d04a f33d 255e b1be
00000370: a7cc ffbe 44f4 c2be 9ea3 22be 6939 35bf
-0.70459586 0.40611702 -0.19202518 0.035362303 0.6740929 0.5569446 0.5860233 0.0469402
-0.055015035 -1.2105626 0.31715262 -0.3038025 0.6897757 0.29530516 0.7987553 0.74537164
0.18116799 -0.6706744 -0.48056838 -0.36193702 0.12936537 0.45231694 -0.6642066 -1.0406649
0.25372422 -0.68649226 -0.7380623 -0.31960478 -0.3418578 0.21418273 1.0556961 -0.39391845
-0.5159225 -0.7412451 0.28211725 -0.056790434 -1.0595711 -0.8919194 -0.28837925 0.12632336
0.3979787 0.06280937 1.6415496 -0.08282004 0.8612812 -1.1019212 -0.10757769 -0.26457492
0.4951698 -0.8933351 0.14824614 -0.20093572 -0.02868469 -0.11250203 0.66260314 0.33574647
-0.28840855 0.8097926 0.25819007 -0.080277875 1.053305 -0.017647909 -0.19777869 -0.37435758
0.40262678 0.7962848 0.1990292 0.32466084 -0.47082192 0.7043489 0.15584986 0.3527944
0.5111457 1.2036513 0.5563985 0.22810349 0.41605765 -0.58296317 -0.12283 0.3443977
-1.1997432 0.82145536 -0.5051504 0.11861417 0.46595952 -0.18979673 -0.6802725 0.84162563
0.09537212 0.2485956 0.5444544 0.023417523 -0.48787758 0.06997131 0.007292653 0.28902948
-1.0323217 -0.78719234 -0.5242048 0.11781178 -0.29229227 -0.8793294 -0.93957263 0.067797504
-0.11113015 -0.039163094 -0.15664563 -0.68677074 0.3019953 0.71051973 -0.42380702 1.186048
0.1087135 -0.3631434 0.62801033 -0.45096907 0.5337835 -0.07870814 -0.62113476 -0.6740025
0.026523193 0.5252793 0.24795645 0.14220881 1.2864368 -0.4935169 0.42690757 -1.7152992
0.19299924 0.20531964 0.09641278 -0.10052612 -0.38685113 0.7423615 0.47242332 -0.32381168
0.035470564 -0.23252942 0.7767947 0.8185111 0.7360645 0.48669267 0.36961544 0.20667948
1.3698661 0.40432683 -0.36020216 -0.37440225 -0.2731698 0.39544985 -0.08128349 -0.45339012
0.008981859 -0.13190295 0.14747487 -0.3025004 0.16414307 0.43777254 -0.43579006 -0.052701395
0.19490133 -0.2765627 0.44614646 0.17289825 1.0642978 -0.07759136 0.32642654 -0.52058154
-0.49174544 -0.6816493 -0.08213 0.98080015 0.13452287 -0.7264618 1.2031958 -0.5273979
0.12384406 0.24431635 0.026400987 0.950599 -0.83547807 0.25556812 0.28997168 0.43455458
0.09856398 -0.4782729 0.5444704 -0.38369483 1.4398994 0.8067698 -0.826224 0.24922608
0.81230956 -0.7710724 -0.7077481 -0.24082492 0.18931542 0.03610469 0.3228793 -0.4214365
0.39525694 -0.3106497 0.6132456 0.13502817 -0.5428712 -0.05591776 -0.41034117 -0.39343232
-0.27235746 0.6493444 -0.28926194 -0.41079426 -0.42427582 0.7624381 0.15303336 0.7018343
1.2254083 -0.8359309 0.11879504 -0.3464214 -0.49960825 -0.38076985 -0.15882728 -0.70790726

0.bias f4 [32]
00000000: 28c2 05be d010 bd3c 2a8e 1f3d 9c5f f93d
00000010: 77e9 853d 0445 f63c 25fb 96bc 5e8f 333b
00000020: 4bc1 e23c c905 6dbd b57e 8ebd 0545 d0bc
00000030: f3bd a5bd a0d0 76bd cfe9 c83d 4cac 98bc
00000040: b236 e03d 698e 7f3d 2b57 f53d b4be 983c
00000050: 1760 823d 0000 0000 86d0 3b3e 6113 ac3d
00000060: bb38 f4bd 7dc9 ca3c 3f7f a4bd 1316 4c3d
00000070: 0323 f43c 4406 773d b4f8 2d3e 5553 a53d
-0.13062346 0.023079306 0.038953938 0.12176439 0.065386705 0.030062206 -0.018430302 0.0027398686
0.02768006 -0.057866845 -0.06957761 -0.025423536 -0.080928706 -0.060257554 0.098102205 -0.018636845
0.10947932 0.062391672 0.119795166 0.018645622 0.06365984 0.0 0.18341264 0.08402134
-0.11924883 0.02475428 -0.08032083 0.04982574 0.029801851 0.06030871 0.16989404 0.08072535

2.weight f4 [32, 32]
00000000: acdb 3ebe 7015 7e3e 4cc0 bdbd f1dc 333e
00000010: f171 073e 3ea0 bd3b 9463 11bf 4b9b 22be
00000020: 2568 353f afee d3be f493 303d 4820 9dbd
00000030: 0878 acbd 4f36 a4bd 176f 61be 7dc1 6dbd
00000040: 2f89 4ebd 0910 283e 10ff 17be de7e 8c3e
00000050: 70f6 273e 353f c83d e0db 94be 4760 493e
00000060: 341c 9cbe 1568 acbe 71a9 8b3e e674 9bbd
00000070: 095a 91be 57b3 5e3e 6a51 3a3e c7c1 57be
00000080: 95f1 00be 7351 6b3e 6590 a8be bc73 f0be
00000090: 2e35 3e3e 7ad8 5c3e 2e42 18bd d572 0c3e
000000a0: 100c f73c 36c6 c43e b727 ab3d 282b 86bd
000000b0: fe1f e2bc 3cc3 65be ede1 f13c 4e8f 313e
000000c0: 7f6c c0bd fc76 a7bd 4d33 9cbd c8af aa3e
000000d0: f310 66be 28f6 c43e e691 da3e fce8 a0be
000000e0: e5b0 523d 188e e3bd 73bb 003f c11e bbbe
000000f0: 57b5 21bc 1a0d 193e e406 943e a6f5 9a3d
00000100: 87b9 c73d 3adf 56be 883a c9be ba66 b13e
00000110: fa69 373e fd72 513e c8a5 cabb 4fc3 2a3e
00000120: cad3 3b3e 181c a43d fcc6 6b3d 6513 923c
00000130: 2aec bcbe fcf5 8dbe 6688 3e3e 4f94 68bc
00000140: 16b8 d2be 80c7 1ebd 64a9 1abd e4b1 2f3e
00000150: d55f b83d a858 123f 03de 153d 08d7 5d3e
00000160: 7277 b1be 1787 75bd 1ff4 ce3d 22d6 113e
00000170: 2657 15be c773 e7be 630a 1e3e abf2 9bbe
00000180: 2519 193e 726a 323e 59e2 e13d a8f4 be3d
00000190: 5ae0 92bd 6a36 21bf 82b6 39be d0b5 efbc
000001a0: 48b0 cd3e 7d32 493e ec0d bf3e 58c7 a3be
000001b0: 58c2 a5be 3b47 24bf 702b d9bd 7c52 a8bd
000001c0: 1693 2dbd 7c3a 333e b9d6 8fbe 1e3b 013e
000001d0: a5a7 98be 13a6 69be 8f86 74be 48ac 5f3d
000001e0: ee51 273f 3296 a33d dcf1 9bbe 11e7 33be
000001f0: 86e1 053f bd81 bcbd 935c a2be 16a1 02be
00000200: 1e63 8a3e bc88 3ebe 840c 74be df83 5bbd
00000210: dc92 db3e e7d9 5e3e b9a4 9abd 3036 c3bd
00000220: 4c77 febe a22b 133f e47b b53e ef71 6abd
00000230: d89e c0bc c9c6 8bbe 3ba5 8d3f 12e2 f0bd
00000240: 4bd9 8fbe 431c 893e 2cd4 93be 4583 a23c
00000250: 088a 77be 2a61 59bd da04 483e 57d8 1c3e
00000260: 1ab0 3d3e 6fe0 6ebe 6b5f 98be 96e2 553e
00000270: 6116 463e 25db 51bd e28f 94bd a71f 3e3e
00000280: 2dc1 733e 2475 b83b f3e1 9b3d 5d6f c83d
00000290: c30e f63e d43f 293e fda1 25be 7509 963d
000002a0: c9fc 90be a9c8 ce3d 699e 9ebd eeb5 9b3e
000002b0: 3370 97be 481e 99be 375b 523e cd26 173f
000002c0: 8e98 d0bd 1d26 943e 476d 863d 88e2 84be
000002d0: 9545 2dbc ea27 bcbd ea39 f23e 835c 713d
000002e0: 4269 953d 21e9 943d 758c fbbc d0b7 073f
000002f0: b855 3c3e 8c3f 143e f0a3 80be 8215 9e3e
00000300: 1726 883e e564 aabd 85fd 6dbd 36b1 463c
00000310: ba77 e73d f05f 43be 80f4 1b3e 42c3 61be
00000320: 9402 4c3d abba 733e 4f43 a3be ebf0 3cbe
00000330: dcd2 cbbe dd57 2b3f 045d 03be bc6f 41be
00000340: dfcb 18be e7f3 873e 468d 9cbe 7aa5 273e
00000350: 5b4d d3bd 8e47 b23d bb9e 8dbe dded f13e
00000360: 8d2b 38bc b95a 92bd 4567 8e3e 23d8 0f3e
00000370: 5051 763e c819 773e 948d 5ebd 4fd3 a1bd
00000380: 38af ad3d 25f2 073e 025d 493e 3e6f c73e
00000390: 7e39 0bbe 10d6 7d3e a5a4 d5be 0591 32be
000003a0: 6b3e 6cbe 26d2 423e 2665 af3e d291 1fbf
000003b0: 06e0 85be 57e2 6d3d b187 5bbe 6feb 403d
000003c0: 1802 23bf 85f6 e53d 5369 66bd 703f 3cbe
000003d0: 1546 f03e cf4b 8b3d bf54 b93d 8972 62bd
000003e0: 14a4 87be c487 583d f9f5 80bd daf6 53bd
000003f0: 1562 3b3e 03e5 afbe f204 063d b88f 9dbe
-0.18638486 0.24812865 -0.09265193 0.17564751 0.13227059 0.0057869246 -0.5679257 -0.15879552
0.70862037 -0.4139304 0.04310985 -0.07672173 -0.08421332 -0.08018171 -0.22015034 -0.058045853
-0.050423797 0.16412367 -0.14843392 0.27440542 0.16402602 0.09777681 -0.29074 0.19665633
-0.30490267 -0.33673158 0.2727771 -0.07590656 -0.28389004 0.217481 0.1819512 -0.21070014
-0.12592156 0.22980289 -0.32922664 -0.46963298 0.18574974 0.21566954 -0.03717249 0.1371568
0.030157119 0.38432473 0.083571844 -0.065512 -0.027603146 -0.22437757 0.029526675 0.17339823
-0.09395694 -0.08176991 -0.07626972 0.33337235 -0.22467403 0.38469052 0.42689437 -0.31427753
0.05143823 -0.111110866 0.50286025 -0.365469 -0.009869895 0.14946404 0.28911507 0.07566385
0.097521834 -0.20983592 -0.39302468 0.34648687 0.1791152 0.20454021 -0.0061843134 0.16676067
0.1834251 0.08013171 0.057562813 0.017831514 -0.3689893 -0.27726734 0.1860672 -0.014195516
-0.4115607 -0.038764477 -0.0377592 0.17157704 0.090026535 0.5716653 0.03658868 0.21664059
-0.34661442 -0.059943285 0.10105156 0.14241841 -0.14584026 -0.4520552 0.1543365 -0.30458578
0.14950998 0.17423418 0.110295005 0.09324008 -0.07171698 -0.62973654 -0.18136027 -0.0292615
0.40173554 0.19648166 0.3731531 -0.31988025 -0.32374835 -0.6417119 -0.10603988 -0.08218858
-0.0423766 0.17502779 -0.28093508 0.12620208 -0.29815403 -0.22817259 -0.23879455 0.05460766
0.6535939 0.07987632 -0.30457962 -0.17568614 0.52297246 -0.09204433 -0.31711254 -0.12756762
0.27028745 -0.18606848 -0.238329 -0.05359256 0.42885482 0.2176281 -0.075509496 -0.0953182
-0.4970039 0.57488453 0.35446084 -0.05723756 -0.023513243 -0.273001 1.1066049 -0.117618695
-0.2809547 0.26779374 -0.28872812 0.019837985 -0.24173748 -0.05307118 0.195331 0.15316902
0.18524209 -0.23327802 -0.29760298 0.20887217 0.19344474 -0.051234383 -0.07254006 0.18566762
0.2380416 0.0056291986 0.07611456 0.09786866 0.48058137 0.16528255 -0.16175075 0.073260225
-0.2831786 0.10096867 -0.07745058 0.3041224 -0.2957779 -0.29905915 0.20542608 0.5904358
-0.101853475 0.28935328 0.06563812 -0.2595408 -0.010575672 -0.091873005 0.4730981 0.058926117
0.07295467 0.07271028 -0.030706624 0.5301485 0.18392074 0.14477366 -0.25125074 0.30875784
0.2659156 -0.08320025 -0.058103103 0.012127211 0.11302133 -0.19079566 0.15229988 -0.22047141
0.049807146 0.23801677 -0.3188729 -0.18451278 -0.3980931 0.66930944 -0.12828451 -0.1889028
-0.1492152 0.2655327 -0.30576533 0.16371718 -0.10317489 0.08705054 -0.27660164 0.47251788
-0.011240852 -0.0714621 0.27813163 0.14047293 0.24054456 0.24130929 -0.05433424 -0.07901632
0.08480686 0.13275965 0.19664386 0.3895206 -0.1359615 0.2478869 -0.41727176 -0.17438133
-0.23070686 0.19025478 0.34256858 -0.6233188 -0.2614748 0.058077183 -0.21438481 0.047099527
-0.6367507 0.112286605 -0.05625279 -0.18383574 0.46928468 0.06801569 0.09049367 -0.05528501
-0.2649237 0.05286385 -0.062969156 -0.051749088 0.18299134 -0.3435441 0.03271956 -0.3077371

2.bias f4 [32]
00000000: 5cf5 303d 507f 3abe 2fcd fa3c 7171 fbbc
00000010: 7e95 ff3c 0c03 ecbc 48cd 97bc 9309 803c
00000020: e85e eaba 9d14 993b 58c5 553e ae9e 8ebc
00000030: 4d5e 6ebc 9889 1cbe e331 a8bc 4da6 8abc
00000040: e3e9 0cbc 47d8 97bd 1ee8 16bd c44d 213c
00000050: 8c4e 7d3c 2371 223d 837d 8abd f292 f8bc
00000060: 2100 713c 621b 88ba 0791 e7bc de8c 0c3d
00000070: 77cd 0cbb 0c8e dcba 2024 973c a79f be3d
0.043202743 -0.18212628 0.030615417 -0.030693742 0.031199213 -0.028810047 -0.018530503 0.015629565
-0.0017881067 0.0046716467 0.20876062 -0.017409649 -0.01454885 -0.15286863 -0.0205316 -0.016925002
-0.008600685 -0.074142985 -0.036842458 0.009845201 0.015460622 0.039658677 -0.06762221 -0.030343506
0.014709503 -0.0010384137 -0.028267397 0.03431403 -0.0021484771 -0.0016827001 0.018449843 0.09307795

4.weight f4 [16, 32]
00000000: 2d0a 3fbe d22d 183f 6378 653c 815d a33c
00000010: 56dc edbd fc4d 0abf 3b1d a93e 637b a13e
00000020: 3f0e 313d 65f1 69bc c7e4 86bd 7e60 4fbe
00000030: defc 7c3e ddf1 86be a994 563e dacb 983e
00000040: fe69 12be 7270 acbe 9206 6abe 295a 37bd
00000050: 3410 76bd f616 753e 0f38 15ba 20bc ec3d
00000060: 2b37 db3c 4178 92bb f85c cabd 0c2b f0be
00000070: 4116 423e 4507 aabe 862d 5b3e f0f3 f73d
00000080: a5d0 113f b195 a5bc ae8f a8be 4de2 8ebe
00000090: 9312 49ba 09a1 e03e d95c 8abe dc4b 3f3c
000000a0: e445 c83a 4d16 d43e b83d 213e 5328 893d
000000b0: 89b6 a83d 4dcf 33be b515 963e 3974 9ebe
000000c0: d50f 3cbe dc9d ec3d b413 983e 45ba babe
000000d0: 3c8a d1be a028 72be 1fe5 b1bd 865d 61be
000000e0: 85e4 85bd 11fd 11bd 282d 9abe 5090 fc3a
000000f0: 4d6f f9bc a00c 0abd 274f 903e 5143 a0be
00000100: c983 b33d d6fd 663e 8031 bdbe a6c0 dfbd
00000110: a552 3abe fd4f 75bc 5860 74bc 5eaf 1e3f
00000120: 8810 1d3e 0a6a 0cbe 83e2 89be f90f 9cbe
00000130: 0021 9cbd 6493 25bd d1a9 d33d 5048 94be
00000140: a2f9 713e 3e53 a2be b0a5 13bf 6ee5 043e
00000150: a783 22be 26e5 643e fe2c 9d3e 48f9 88be
00000160: 96f3 54bd 8fac dcbe 95af b73d 1488 cc3e
00000170: 5cd3 ec3d dbd5 43bd d34c e9bd 5bd7 90bd
00000180: 8b03 00be 26c0 eb3e d55b 9e3e e2fc 84be
00000190: c67f a23d 254d c9be 24fc c1be a694 b73e
000001a0: bc92 e13e 8b13 4f3e 98ec 88be 3b11 8ebe
000001b0: aecc 36be fd97 5abd 3ae9 16be eef0 a63d
000001c0: b71d b8be c0b7 f5bd 0ae2 debb 67dc 4b3e
000001d0: 480b c1bb 6ec0 8fbe 132e 33be a3e8 a1bf
000001e0: 132a 5e3e 4081 34bc 5bd8 1bbe 28f4 e03d
000001f0: 8f43 21bd fab8 b93d bbe3 86be 845a 9b3e
00000200: 74d9 10bf ddb0 c8be 7da6 8b3c 3d42 13be
00000210: c218 55bf ac25 0b3e 41aa 41be e8cf 363d
00000220: 0229 2c3d b607 203d 9e00 723d 2c55 ff3e
00000230: dd06 a73e a6ee 69bd d3fc 563e 26e4 003f
00000240: 1248 1a3e 8534 2b3e 2f31 81bd 7bb8 f7bd
00000250: df41 2cbe f4a6 6c3e 1869 903e e342 41bd
00000260: 4bba 183f 6c5e 493e d7d1 bf3d cf5a 0b3f
00000270: b4b5 0dbe 2cb9 9b3e fd4c 113f 48a4 fcbd
00000280: 201e 153e ebfd acbe 2e96 bd3d 64c5 60bc
00000290: 1b4a 963e e945 15be 2ca9 c0be 7dfd aa3d
000002a0: d862 4e3e 75a9 bc3e 0e34 ddbe 8032 36be
000002b0: 96b0 843e edc5 c43d 69f3 4d3b f980 cabe
000002c0: 28a7 adbd 39db 973e 27da ccbd 4d93 c7bd
000002d0: 167a 8bbe 080c 613e d87c 603e 5118 66bc
000002e0: f240 d5bd d229 07bf c566 743e b9c6 d73e
000002f0: 54e3 0d39 d473 b43e a675 93be f628 983e
00000300: 0676 373e 645b f53e 7c6b ad3e e715 6b3e
00000310: 1e04 873e dd0b a6be 09a5 8ebe a744 d5bd
00000320: 14e5 dbbe 46be 4ebe e6bf e83e de1a a9be
00000330: 85a2 e13d eaec 72be 7be7 803e 7dcf e3be
00000340: 38fb 553e d10d 293f 046b a9bd 533d 513d
00000350: 9268 7c3e 4f44 99bd 1759 b1be 6ce2 ae3e
00000360: 7657 debd 0ac7 3fbd 1b2d 26be 3b14 4e3d
00000370: 30a4 6b3e 5636 95bd d52c 88bd 2a55 1a3f
00000380: 6374 2e3e d1d3 a0be 5d08 b9be 37d9 8cbc
00000390: 3a94 163f 5978 e1bd d731 65be 2b8d abbe
000003a0: c9a5 98be d5f8 7c3e 7b84 86bd 58d3 463e
000003b0: 60df abbe 621e 943d 0bf1 073e f873 49be
000003c0: dc1c adbe cfac 003f 2cb1 e43d 75bd 2cbe
000003d0: 1d30 ab3e 41d3 acbe 748f df3e 3e2b 8dbe
000003e0: ac97 d5be 76a3 85be 1069 ad3e 1175 a33e
000003f0: 7a3d bfbe d261 a2be 9ee8 52bd f07a ea3e
-0.18656226 0.59444916 0.014005753 0.019942047 -0.11614291 -0.54025245 0.33030114 0.3153945
0.043226477 -0.014278744 -0.065866046 -0.20251653 0.24705836 -0.26356402 0.20955147 0.29843026
-0.14298245 -0.3367954 -0.22854069 -0.044763718 -0.060074046 0.2393454 -0.00056922523 0.115593195
0.026759705 -0.004469902 -0.09881014 -0.46907842 0.18953802 -0.3320867 0.21404085 0.12107074
0.5695899 -0.02021298 -0.3292212 -0.2790703 -0.0007670309 0.4387286 -0.27023962 0.011675801
0.0015279618 0.41423264 0.157462 0.06697144 0.08237941 -0.17559548 0.29313436 -0.30948046
-0.18365414 0.11553547 0.29702532 -0.36470237 -0.40925777 -0.2364831 -0.086862795 -0.22008333
-0.06537727 -0.035641734 -0.30112576 0.0019269083 -0.03044858 -0.033703446 0.28185388 -0.31301358
0.087653704 0.22557768 -0.36951828 -0.10925417 -0.18195589 -0.014972684 -0.014915548 0.6198634
0.15338337 -0.13712326 -0.26930627 -0.30480936 -0.07623482 -0.040423766 0.10335124 -0.2896142
0.23630384 -0.31704134 -0.57674694 0.12978145 -0.15870534 0.22353038 0.3069839 -0.26752687
-0.051990114 -0.43100402 0.089690365 0.3994757 0.11563751 -0.04781137 -0.11391606 -0.07072326
-0.12501352 0.46045035 0.30929437 -0.25974184 0.07934527 -0.3931667 -0.3788768 0.35855597
0.44057262 0.20222299 -0.26743007 -0.2774752 -0.17851517 -0.053367604 -0.14737406 0.081514224
-0.3596017 -0.11997938 -0.0068018483 0.19908296 -0.0058912374 -0.280765 -0.17498045 -1.264912
0.21695738 -0.011017144 -0.15219252 0.10984069 -0.03937107 0.090684846 -0.2634562 0.30342495
-0.5658181 -0.39197436 0.017047161 -0.14380737 -0.832409 0.1358859 -0.18912603 0.04463187
0.042031296 0.039069854 0.05908262 0.49869668 0.32622424 -0.05711236 0.20994882 0.50348127
0.15066555 0.16719253 -0.06308209 -0.12095734 -0.16822003 0.23110563 0.2820518 -0.04718293
0.5965926 0.19664925 0.09366196 0.5443544 -0.13838845 0.30414712 0.567581 -0.12336022
0.14562273 -0.33787474 0.0925716 -0.013718937 0.29353413 -0.1457745 -0.37629068 0.0834913
0.20154893 0.36848035 -0.43203777 -0.17792702 0.25915974 0.09608064 0.0031425601 -0.39551523
-0.08479148 0.2965944 -0.10002547 -0.09744892 -0.27241582 0.21977246 0.21922624 -0.014043883
-0.10412778 -0.5279819 0.23867328 0.421438 0.00013531494 0.3524462 -0.28800696 0.2971875
0.17916116 0.47921288 0.33871067 0.22957574 0.2637033 -0.32430926 -0.27860287 -0.10413485
-0.4294821 -0.20189771 0.45458907 -0.3302831 0.11017326 -0.23723188 0.25176606 -0.44494238
0.20896614 0.6603671 -0.08272365 0.051083874 0.24649265 -0.07483732 -0.34638283 0.3415712
-0.108565256 -0.046820678 -0.16228144 0.050312262 0.23011851 -0.072857544 -0.06649176 0.602862
0.17036586 -0.31411603 -0.36139193 -0.01719342 0.58819926 -0.110092826 -0.22382294 -0.3350614
-0.29813984 0.24704297 -0.065682374 0.19416559 -0.3356886 0.072323576 0.13275544 -0.19673145
-0.3381108 0.50263685 0.11166605 -0.16869147 0.33435145 -0.33754924 0.43664134 -0.27572054
-0.4171728 -0.26101273 0.3386922 0.31925252 -0.3735159 -0.31715256 -0.051491372 0.4579692

4.bias f4 [16]
00000000: 4832 d43c 01f2 9339 9d4b 5d3d 21bd 5a3d
00000010: 8c1c 23bd 247b 063b 4dbc 833c 2475 57bd
00000020: 1349 fc3d 6b72 db3d 8650 97bd e370 6f3c
00000030: 3c4c b7bd 21eb 31bd a962 1dbc 9b99 493d
0.025902882 0.00028218332 0.05402719 0.053403024 -0.039822146 0.0020520175 0.016081 -0.05260195
0.12318625 0.10715183 -0.073884055 0.014614317 -0.089500874 -0.043437127 -0.009606042 0.049218755

6.weight f4 [8, 16]
00000000: 4cb9 f23c 8c7b 0dbb 338d 1cbe 3574 79bc
00000010: 8f37 933e 2083 8c3e f79b 453f a828 9fbc
00000020: e8f3 573f b8ba 34bf 3b8a cb3e 7c48 fbbd
00000030: 1104 b23e 9423 72bd cc36 cfbd 4570 69be
00000040: 5662 42be e2b9 103f 0cfc fbbb e51a 6d3e
00000050: 2d0e 983e 8d24 04be 0d33 843e e6c3 80be
00000060: 9026 a93e 3171 c23e 7778 c6bd e7bf b7be
00000070: 5413 a6bd f9e4 3e3e 0bd0 f83e abf1 cf3d
00000080: 644a bd3e a68f 37bf b790 24bf d3a8 ce3d
00000090: 695f 5dbe ee65 353c ebb5 b6bd bf48 b03e
000000a0: 91b7 f33e 12f2 9b3e 27a2 01bf 4a6f 3cbe
000000b0: 098f a03d 807d 5c3e 599d 95be e3be ec3e
000000c0: e423 1d3f 1c16 a83d 671e da3e beef 7c3f
000000d0: a735 d8be 231f 45be 7ad1 b53e ea26 863d
000000e0: 3b7c bcbd 087c f03e 52e4 33bf 26d3 dbbe
000000f0: 607d 203e 01ce 1f3f 5ec5 bcbd 51a9 c3bd
00000100: 0fa7 463e 138b 123f 7c18 0b3f 95a8 a23e
00000110: 478c c1bd 8e5b 30be 788a f93d 55ff 5d3e
00000120: 74ee 0d3e d210 75bf bced c23e 8172 1bbf
00000130: 5164 db3e c5dc b83c b523 293f d892 15be
00000140: e2b1 a6bd 28ed 9c3e 956e 833e e9c8 a0bd
00000150: 0cba 6bbf 601f 88bd d5b8 153e 5607 1d3e
00000160: f97d 2f3e 0b8f 1ebd b6c0 97bc 90e5 84be
00000170: 28e5 a3be b61d 123f 3516 df3e e79a 83bf
00000180: 4349 dcbd 977b 623d 09d5 aebd 1cf3 b03c
00000190: 5b1a dcbe 51f7 4cbf 7b61 a93e 264e dabd
000001a0: b541 cfbd a467 15bf cdaf 91bd 27ce 2b3e
000001b0: 744f 96be 8a00 a83e df8c 33bf a927 78be
000001c0: b7fa 75be 72a3 b53e 9952 babe 90b1 1ebf
000001d0: b44a f73e 6a41 013f b8b0 313e 4804 4abe
000001e0: 3a30 ef3e 348c 4d3e 664e bc3d 71d8 8ebd
000001f0: ddee 643e 2f18 fbbe e7e4 d3be 2ba8 e8be
0.029629372 -0.0021588532 -0.15288238 -0.01522546 0.28753325 0.2744379 0.7719111 -0.019428566
0.84356546 -0.7059741 0.397539 -0.12269685 0.34768727 -0.05911596 -0.101178735 -0.22796734
-0.18982825 0.56533635 -0.0076899584 0.2315479 0.29698315 -0.12904568 0.258202 -0.2514946
0.33037233 0.37976983 -0.096909456 -0.35888597 -0.08109155 0.18642034 0.48596224 0.101535164
0.36970818 -0.71703565 -0.6428332 0.100907944 -0.21618427 0.011071665 -0.08921417 0.344305
0.47600988 0.30458122 -0.5063805 -0.18401828 0.07839782 0.2153225 -0.2922161 0.46239385
0.6138289 0.08207342 0.4260132 0.9880332 -0.42228433 -0.19250159 0.3551138 0.06550391
-0.092033826 0.46969628 -0.70270264 -0.4293453 0.15672827 0.6242371 -0.09217332 -0.09553779
0.19399665 0.5724346 0.54334235 0.31769243 -0.09450584 -0.17222425 0.12184614 0.21679433
0.13860494 -0.9572879 0.38072002 -0.60721594 0.42849973 0.022566209 0.6607011 -0.14606798
-0.08139397 0.30649686 0.25670305 -0.078508206 -0.9208076 -0.06646609 0.14621289 0.1533483
0.17137899 -0.038710635 -0.018524509 -0.25956392 -0.3201077 0.57076585 0.4357163 -1.0281647
-0.10756161 0.055293646 -0.08536727 0.021600299 -0.42988858 -0.80064875 0.33082184 -0.10659437
-0.101199545 -0.5836127 -0.071136095 0.1677786 -0.29357493 0.3281291 -0.7013683 -0.24233879
-0.24021421 0.3547626 -0.36391142 -0.6198969 0.4829918 0.5049044 0.17352569 -0.19728196
0.4671648 0.20073014 0.09194641 -0.06974877 0.22356744 -0.49041888 -0.41385576 -0.45440802

6.bias f4 [8]
00000000: 562c d2ba b4a6 2bbb 0e87 1ebd 4f25 563c
00000010: ed09 8f3c 38da 67bd 60a8 99bd 3447 323d
-0.0016034942 -0.0026191892 -0.038703017 0.0130704185 0.017460788 -0.056604594 -0.07502818 0.043524936

8.weight f4 [4, 8]
00000000: a620 58bf 82c7 433f 9d31 253f 2d2e 213f
00000010: 925a bdbd 6909 10bf 03ff 47bf d2b3 f43e
00000020: a48b 993e ce02 093f 2f18 5a3d 5090 f73e
00000030: 351c e7be c46e db3e fe69 85be 61de 70bf
00000040: ee26 f9be 5190 65bf 8e96 603e e1eb 3cbf
00000050: 63ee 8ebe 5a16 a3bd 7455 55bf 8cb4 31bd
00000060: 1279 83bb 6006 0bbf 68bd 9e3f f171 1dbf
00000070: 9461 713e 4733 39bf 90f8 813c c0c2 2a3e
-0.8442482 0.764763 0.6452883 0.62961084 -0.092457905 -0.5626436 -0.7812349 0.47793442
0.2998935 0.53519905 0.05324572 0.4835229 -0.45138708 0.42857945 -0.26057428 -0.94089323
-0.48662513 -0.89673334 0.21932432 -0.7379742 -0.2791625 -0.079632476 -0.83333516 -0.043385074
-0.0040122354 -0.543066 1.2401552 -0.61501986 0.2357238 -0.7234387 0.015865594 0.16675854

8.bias f4 [4]
00000000: da6c 153c ca09 8cbd 0000 0000 bf9c bbbd
0.0091201905 -0.068378046 0.0 -0.09160756

10.weight f4 [2, 4]
00000000: ce43 243f 95f3 063f 8e9f 16bf 96c9 24bf
00000010: 4307 c93f 902f 3cbe e998 c8be ec7f 843f
0.6416596 0.52715427 -0.5883721 -0.64370096 1.5705341 -0.18377519 -0.3917916 1.0351539

10.bias f4 [2]
00000000: 4c95 49bd 0886 acbd
-0.049214646 -0.08424002

12.weight f4 [1, 2]
00000000: e35c ed3c e66f 933f
0.028974956 1.1518524
